Model: "Model5"
_________________________________________________________________
Layer (type)                 Output Shape              Param #   
=================================================================
conv2d_15 (Conv2D)           (None, 72, 52, 30)        4440      
_________________________________________________________________
max_pooling2d_15 (MaxPooling (None, 36, 26, 30)        0         
_________________________________________________________________
conv2d_16 (Conv2D)           (None, 36, 26, 60)        45060     
_________________________________________________________________
max_pooling2d_16 (MaxPooling (None, 18, 13, 60)        0         
_________________________________________________________________
conv2d_17 (Conv2D)           (None, 18, 13, 120)       64920     
_________________________________________________________________
max_pooling2d_17 (MaxPooling (None, 9, 7, 120)         0         
_________________________________________________________________
conv2d_18 (Conv2D)           (None, 9, 7, 60)          64860     
_________________________________________________________________
max_pooling2d_18 (MaxPooling (None, 5, 4, 60)          0         
_________________________________________________________________
conv2d_19 (Conv2D)           (None, 5, 4, 60)          14460     
_________________________________________________________________
max_pooling2d_19 (MaxPooling (None, 3, 2, 60)          0         
_________________________________________________________________
flatten_3 (Flatten)          (None, 360)               0         
_________________________________________________________________
dense_7 (Dense)              (None, 160)               57760     
_________________________________________________________________
dense_8 (Dense)              (None, 160)               25760     
=================================================================
Total params: 277,260
Trainable params: 277,260
Non-trainable params: 0
_________________________________________________________________


Model: "Model5"
__________________________________________________________________________________________________
Layer (type)                    Output Shape         Param #     Connected to                     
…
