Model: "Model5"
_________________________________________________________________
Layer (type)                 Output Shape              Param #   
=================================================================
conv2d_57 (Conv2D)           (None, 72, 52, 30)        4440      
_________________________________________________________________
max_pooling2d_53 (MaxPooling (None, 36, 26, 30)        0         
_________________________________________________________________
conv2d_58 (Conv2D)           (None, 36, 26, 60)        45060     
_________________________________________________________________
max_pooling2d_54 (MaxPooling (None, 18, 13, 60)        0         
_________________________________________________________________
conv2d_59 (Conv2D)           (None, 18, 13, 120)       64920     
_________________________________________________________________
max_pooling2d_55 (MaxPooling (None, 9, 7, 120)         0         
_________________________________________________________________
conv2d_60 (Conv2D)           (None, 9, 7, 60)          64860     
_________________________________________________________________
max_pooling2d_56 (MaxPooling (None, 5, 4, 60)          0         
_________________________________________________________________
conv2d_61 (Conv2D)           (None, 5, 4, 60)          14460     
_________________________________________________________________
max_pooling2d_57 (MaxPooling (None, 3, 2, 60)          0         
_________________________________________________________________
flatten_11 (Flatten)         (None, 360)               0         
_________________________________________________________________
dense_23 (Dense)             (None, 160)               57760     
_________________________________________________________________
dense_24 (Dense)             (None, 160)               25760     
=================================================================
Total params: 277,260
Trainable params: 277,260
Non-trainable params: 0
_________________________________________________________________


Model: "Model5"
__________________________________________________________________________________________________
Layer (type)                    Output Shape         Param #     Connected to                     
…
