Model: "Model1"
_________________________________________________________________
Layer (type)                 Output Shape              Param #   
=================================================================
conv2d_15 (Conv2D)           (None, 72, 52, 20)        2960      
_________________________________________________________________
max_pooling2d_15 (MaxPooling (None, 36, 26, 20)        0         
_________________________________________________________________
conv2d_16 (Conv2D)           (None, 36, 26, 40)        20040     
_________________________________________________________________
max_pooling2d_16 (MaxPooling (None, 18, 13, 40)        0         
_________________________________________________________________
conv2d_17 (Conv2D)           (None, 18, 13, 60)        21660     
_________________________________________________________________
max_pooling2d_17 (MaxPooling (None, 9, 7, 60)          0         
_________________________________________________________________
conv2d_18 (Conv2D)           (None, 9, 7, 80)          43280     
_________________________________________________________________
max_pooling2d_18 (MaxPooling (None, 5, 4, 80)          0         
_________________________________________________________________
conv2d_19 (Conv2D)           (None, 5, 4, 100)         32100     
_________________________________________________________________
max_pooling2d_19 (MaxPooling (None, 3, 2, 100)         0         
_________________________________________________________________
flatten_3 (Flatten)          (None, 600)               0         
_________________________________________________________________
dense_6 (Dense)              (None, 100)               60100     
=================================================================
Total params: 180,140
Trainable params: 180,140
Non-trainable params: 0
_________________________________________________________________


Model: "Model1"
__________________________________________________________________________________________________
Layer (type)                    Output Shape         Param #     Connected to                     
…
